…
-allow_variable_data_keys true --output_dir exp_whisper/asr_stats_raw_word/logdir/stats.3 --config conf/gop/train_whisper_feats_gop.yaml --frontend_conf fs=16k
[node08] 2023-05-12 22:41:07,112 (gop_multitask:428) INFO: Vocabulary size: 42
[node08] 2023-05-12 22:41:08,002 (abs_task:1157) INFO: pytorch.version=1.10.1, cuda.available=True, cudnn.version=8200, cudnn.benchmark=False, cudnn.deterministic=True
[node08] 2023-05-12 22:41:08,003 (abs_task:1158) INFO: Model structure:
ESPnetGOPModel(
  (normalize): UtteranceMVN(norm_means=True, norm_vars=False)
  (encoder): TransformerEncoder(
    (embed): Linear(in_features=1, out_features=256, bias=True)
    (encoders): MultiSequential(
      (0): EncoderLayer(
        (self_attn): MultiHeadedAttention(
          (linear_q): Linear(in_features=256, out_features=256, bias=True)
          (linear_k): Linear(in_features=256, out_features=256, bias=True)
          (linear_v): Linear(in_features=256, out_features=256, bias=True)
          (linear_out): Linear(in_features=256, out_features=256, bias=True)
          (dropout): Dropout(p=0.0, inplace=False)
        )
        (feed_forward): PositionwiseFeedForward(
          (w_1): Linear(in_features=256, out_features=512, bias=True)
          (w_2): Linear(in_features=512, out_features=256, bias=True)
          (dropout): Dropout(p=0.1, inplace=False)
          (activation): ReLU()
        )
        (norm1): LayerNorm((256,), eps=1e-12, elementwise_affine=True)
        (norm2): LayerNorm((256,), eps=1e-12, elementwise_affine=True)
        (dropout): Dropout(p=0.1, inplace=False)
      )
      (1): EncoderLayer(
        (self_attn): MultiHeadedAttention(
          (linear_q): Linear(in_features=256, out_features=256, bias=True)
          (linear_k): Linear(in_features=256, out_features=256, bias=True)
          (linear_v): Linear(in_features=256, out_features=256, bias=True)
          (linear_out): Linear(in_features=256, out_features=256, bias=True)
          (dropout): Dropout(p=0.0, inplace=False)
        )
        (feed_forward): PositionwiseFeedForward(
          (w_1): Linear(in_features=256, out_features=512, bias=True)
          (w_2): Linear(in_features=512, out_features=256, bias=True)
          (dropout): Dropout(p=0.1, inplace=False)
          (activation): ReLU()
        )
        (norm1): LayerNorm((256,), eps=1e-12, elementwise_affine=True)
        (norm2): LayerNorm((256,), eps=1e-12, elementwise_affine=True)
        (dropout): Dropout(p=0.1, inplace=False)
      )
      (2): EncoderLayer(
        (self_attn): MultiHeadedAttention(
          (linear_q): Linear(in_features=256, out_features=256, bias=True)
          (linear_k): Linear(in_features=256, out_features=256, bias=True)
          (linear_v): Linear(in_features=256, out_features=256, bias=True)
          (linear_out): Linear(in_features=256, out_features=256, bias=True)
          (dropout): Dropout(p=0.0, inplace=False)
        )
        (feed_forward): PositionwiseFeedForward(
          (w_1): Linear(in_features=256, out_features=512, bias=True)
          (w_2): Linear(in_features=512, out_features=256, bias=True)
          (dropout): Dropout(p=0.1, inplace=False)
          (activation): ReLU()
        )
        (norm1): LayerNorm((256,), eps=1e-12, elementwise_affine=True)
        (norm2): LayerNorm((256,), eps=1e-12, elementwise_affine=True)
        (dropout): Dropout(p=0.1, inplace=False)
      )
    )
    (after_norm): LayerNorm((256,), eps=1e-12, elementwise_affine=True)
  )
  (phone_to_word): MLP(
    (fc1): Linear(in_features=256, out_features=256, bias=True)
    (relu): ReLU()
    (dropout): Dropout(p=0.1, inplace=False)
    (fc2): Linear(in_features=256, out_features=256, bias=True)
  )
  (word_to_utt): MLP(
    (fc1): Linear(in_features=256, out_features=256, bias=True)
    (relu): ReLU()
    (dropout): Dropout(p=0.1, inplace=False)
    (fc2): Linear(in_features=256, out_features=256, bias=True)
  )
  (mlp_phone_score): Linear(in_features=256, out_features=1, bias=True)
  (mlp_word_score): Linear(in_features=256, out_features=1, bias=True)
  (mlp_utt_score): Linear(in_features=512, out_features=1, bias=True)
  (mseloss): MSELoss()
)

Model summary:
    Class Name: ESPnetGOPModel
    Total Number of model parameters: 1.85 M
    Number of trainable parameters: 1.85 M (100.0%)
    Size: 7.39 MB
    Type: torch.float32
[node08] 2023-05-12 22:41:08,003 (abs_task:1161) INFO: Optimizer:
Adam (
Parameter Group 0
    amsgrad: False
    betas: (0.9, 0.999)
    eps: 1e-08
…
